conv_weights.npy (npy, 2396 bytes, 1 tensors)

array f4 [21, 1, 3, 3, 3]
0	0xbecb88ef	-0.3975291
1	0xbfa04180	-1.2519989
2	0x3fd36d4c	1.651773
3	0xbe0d91c0	-0.1382513
4	0xbd56ced2	-0.052443333
5	0x3e13990b	0.1441385
6	0x3ee0df10	0.43920183
7	0x3f1a283f	0.6021766
8	0x3f873370	1.0562572
9	0xbecfb2c0	-0.40566063
10	0xbe12e50f	-0.14345191
11	0x3ed78350	0.4209237
12	0xbf4fbbd9	-0.8114601
13	0x3f14473d	0.579212
14	0xbf7e5309	-0.9934545
15	0x3f2efcc3	0.68354434
16	0x3e9aef36	0.30260628
17	0x3ec6f492	0.38858467
18	0x3f037cd1	0.5136233
19	0x3f1ae043	0.60498446
20	0xbf903cd3	-1.1268562
21	0xbf6fa083	-0.93604296
22	0x40159343	2.3371131
23	0x3efc7254	0.49305975
24	0xbf7346fb	-0.9503018
25	0x3faf4ddb	1.3695635
26	0x3ecd3e11	0.40086415
27	0x3db9146b	0.090370975
28	0x3edfafb4	0.43688738
29	0x3f07c297	0.53031296
30	0x3fa77e21	1.3085366
31	0x3faecff4	1.3657212
32	0x3f01ca3b	0.50699204
33	0x3f095577	0.53646034
34	0xbf3192e6	-0.69364774
35	0xbf4ae47b	-0.79254884
36	0xbe0536df	-0.13009213
37	0xbef62ece	-0.48082584
38	0x3f39ca42	0.72574246
39	0xbef53a10	-0.4789586
40	0xbd10a474	-0.035313085
41	0x3f37d9d5	0.7181676
42	0xbf98b903	-1.1931461
43	0xbf3de79b	-0.74181527
44	0xbf9b9535	-1.2154909
45	0xbe1d54d1	-0.15364386
46	0xbf817af8	-1.0115652
47	0xbf4b8822	-0.795046
48	0xbed92aae	-0.42415375
49	0xbf3d4f41	-0.73949057
50	0xbf7e7aba	-0.99406016
51	0xbf90242c	-1.1261039
52	0x3e42721d	0.18988843
53	0xbfcb7880	-1.5896149
54	0x3f5ea531	0.8697081
55	0xbe024c81	-0.12724496
56	0xbf12a4a6	-0.57282484
57	0x3f2b3262	0.66873753
58	0xbfa48bfd	-1.2855221
59	0x3db55eb3	0.08855953
60	0xbfb47a7e	-1.4099882
61	0xbf4da7a3	-0.8033392
62	0x3e52b546	0.20576963
63	0x3ffbdc1b	1.9676546
64	0x3eb19446	0.34683436
65	0x3eef81c5	0.46778694
66	0xbf13037e	-0.57427204
67	0x3f02752b	0.50960034
68	0xbfb81df5	-1.4384142
69	0xc002b8f4	-2.0425386
70	0xbff0aa1f	-1.8801917
71	0xbed6de98	-0.419667
72	0x3f2876a6	0.65806043
73	0xbf9325fa	-1.1495965
74	0x3e474b93	0.19462423
75	0x3e23d879	0.16000547
76	0xbe843a34	-0.25825655
77	0x3f48f8e6	0.7850479
78	0xbfb270dc	-1.3940692
79	0xbf6f0214	-0.93362546
80	0x3f4b3834	0.79382634
81	0xbee37ea2	-0.4443255
82	0x3f99708c	1.1987472
83	0xbecbe40e	-0.3982243
84	0x3ffecff5	1.9907213
85	0xbf9cc537	-1.2247685
86	0x3f900f65	1.1254698
87	0xbf611188	-0.87917376
88	0x3f2706f0	0.6524496
89	0xbfb53184	-1.4155736
90	0x3e8dfec2	0.27733427
91	0xbf720096	-0.94532144
92	0xbea9aa0c	-0.33137548
93	0x3f80718d	1.0034653
94	0xbfba2574	-1.454268
95	0x3f3fb53e	0.7488593
96	0xbe856623	-0.26054487
97	0x3f7f7687	0.99790233
98	0x402684a1	2.601845
99	0xbf2854ab	-0.65754193
100	0x3e97a348	0.2961676
101	0xbce16fdd	-0.02751916
102	0x3f2af0d6	0.66773736
103	0x3e4c45d2	0.1994851
104	0xbee8799f	-0.4540529
105	0x3fcf2dad	1.6185814
106	0x3f0d7e47	0.5527081
107	0xbf2c2339	-0.67241246
108	0x3e1df18f	0.15424179
109	0xbf1b9daa	-0.6078745
110	0xbf9307f8	-1.1486807
111	0xc02defb8	-2.7177563
112	0x3ee95f6f	0.45580623
113	0x3fa4ba41	1.286934
114	0x3f933897	1.1501645
115	0xbfda0250	-1.7031956
116	0x3f8a1354	1.0787148
117	0xc025bd90	-2.589695
118	0x3dd8ab3b	0.105795346
119	0x3ffe0e3a	1.9848092
120	0x3f98bee3	1.1933254
121	0x3ebd761d	0.37004176
122	0xbed3356e	-0.412517
123	0xbf712c64	-0.9420836
124	0xbd8ea08e	-0.06964217
125	0x3e93b464	0.28848565
126	0x3f5d6ff9	0.8649898
127	0xbeb430ad	-0.35193387
128	0x3eea7e0d	0.45799294
129	0xbf36985d	-0.7132624
130	0xbf029276	-0.5100473
131	0x3f3de239	0.74173313
132	0x3f9b39e5	1.2127043
133	0xbf04926a	-0.5178591
134	0x3f8e7bf7	1.1131581
135	0xbdb84e52	-0.089993134
136	0xbf378f21	-0.7170277
137	0x3fca7361	1.5816461
138	0xbf835ec3	-1.0263294
139	0xbfbebe8e	-1.4901903
140	0xbfa1fa71	-1.2654554
141	0x3ecaf548	0.3964026
142	0xbf8153fe	-1.0103757
143	0x3e8ad5b4	0.27116168
144	0x3fc9e2a0	1.5772285
145	0xbff4f239	-1.913642
146	0xc0006e1e	-2.006721
147	0xbfa8a985	-1.3176733
148	0x3f0585c3	0.5215723
149	0x3e7b8e43	0.24565987
150	0xbdeb31ee	-0.11484133
151	0x3fa46d1a	1.2845795
152	0xc005d985	-2.0914013
153	0xc0051212	-2.079228
154	0xbe97be9d	-0.29637614
155	0x3f9c58e9	1.2214633
156	0x3f02ede0	0.5114422
157	0xbf327b02	-0.69718945
158	0xbf463aa6	-0.7743324
159	0x3ea97738	0.3309877
160	0x3f52499e	0.8214358
161	0x3f92c4ea	1.1466343
162	0x3faf5075	1.3696429
163	0xbf23f1be	-0.64040744
164	0xbfae8dfc	-1.363708
165	0x404ff7a0	3.2494888
166	0xbe9ffea8	-0.31248975
167	0x3f14c01a	0.58105624
168	0x3f9a2347	1.2042016
169	0xbfd2e942	-1.6477435
170	0x3fa84c8d	1.3148361
171	0xbd317a0d	-0.043329287
172	0xbf1bfa2a	-0.60928595
173	0xbc01aa12	-0.007914083
174	0x3e3ef8be	0.18649575
175	0x3f7f0612	0.9961864
176	0x3fdfbcc4	1.7479482
177	0xc0185fd7	-2.3808496
178	0x3f36dd2d	0.7143124
179	0xba876d95	-0.0010332341
180	0xbfbc9d44	-1.4735494
181	0xbf85b020	-1.0444374
182	0x3f87e646	1.0617149
183	0xbef9063f	-0.48637578
184	0x3e8a35f2	0.26994282
185	0xbf84c2a4	-1.03719
186	0xbea16f3b	-0.31530175
187	0x3e92b99f	0.28657243
188	0x3f0d3230	0.55154705
189	0xbfc23338	-1.5171881
190	0x3f4054b6	0.7512926
191	0xbf9b78cd	-1.214624
192	0x3bf8019d	0.0075685517
193	0xbe8343bb	-0.25637612
194	0xbf02e6c5	-0.51133376
195	0xc0272bb9	-2.6120436
196	0xbe154029	-0.14575256
197	0xbdb7354e	-0.08945714
198	0x3f112eb5	0.56711894
199	0xbe6ac24a	-0.22925678
200	0xbf6c2b7d	-0.9225386
201	0x40051160	2.0791855
202	0xbfccdc1c	-1.6004672
203	0x3f391c14	0.7230847
204	0xbe0e3913	-0.1388896
205	0x3ea1d769	0.31609657
206	0xbfccefb4	-1.6010652
207	0xbf8bac1c	-1.0911899
208	0xbf1521c6	-0.5825466
209	0xbfa5fda3	-1.2968029
210	0x3f8bb0c3	1.0913318
211	0xbf7a05c5	-0.97665054
212	0x3f8d046a	1.1016972
213	0x3fae5e72	1.3622572
214	0x3e6bf668	0.23043215
215	0xbe7a0595	-0.24416192
216	0xbec8ad42	-0.39194685
217	0x3dca30eb	0.098726116
218	0xbfdd361c	-1.7282138
219	0xbf85e797	-1.0461301
220	0xbd900262	-0.070317045
221	0x3ce48414	0.027895011
222	0xbd9c49d4	-0.07631269
223	0x3f075704	0.5286715
224	0x401176cb	2.2728755
225	0xbe930daf	-0.28721377
226	0x3fb32b7e	1.3997648
227	0xbf0f295e	-0.55922496
228	0xbfa9f43a	-1.3277657
229	0xbedf5a11	-0.43623403
230	0xbe3efc08	-0.1865083
231	0xc00b85f0	-2.18005
232	0xc003b176	-2.0577064
233	0xbed3097b	-0.4121817
234	0xbd9d0b1a	-0.07668133
235	0x40363b21	2.847359
236	0x3f5afe2b	0.8554408
237	0xbe8b1c54	-0.2717005
238	0x3ef83f42	0.48485762
239	0xbe026085	-0.12732132
240	0xbe77abc2	-0.24186614
241	0xbf68f50f	-0.9099893
242	0x3eb648b9	0.35602358
243	0xbfa75794	-1.3073602
244	0xbf9c5500	-1.221344
245	0x3fb029fa	1.376281
246	0xbfd9a243	-1.7002643
247	0x3fd6d9c0	1.6785202
248	0x3e9d05a1	0.30668357
249	0xbf551faa	-0.8325144
250	0x3d37fcd6	0.044918858
251	0xbcb21d79	-0.02174257
252	0x3eed2c1f	0.46322724
253	0x3f61326a	0.8796755
254	0x3e9e5364	0.30922997
255	0xbffe77b9	-1.9880286
